…
2025-09-11 17:24:59,735 [INFO ] test data object: GraphData(x=[515088, 1], edge_index=[2, 5078345], edge_attr=[5078345, 4], y=[5078345], readout='edge', loss_fn='ce', num_nodes=515088, timestamps=[5078345])
2025-09-11 17:24:59,744 [INFO ] Retrieved data in 22.29s
2025-09-11 17:24:59,744 [INFO ] Running Training
2025-09-11 17:25:03,315 [INFO ] +---------------------------------+----------------------------------------+----------------+----------+
| Layer                           | Input Shape                            | Output Shape   | #Param   |
|---------------------------------+----------------------------------------+----------------+----------|
| GINe                            | [50614, 1], [2, 341148], [341148, 4]   | [341148, 2]    | 38,535   |
| ├─(node_emb)Linear              | [50614, 1]                             | [50614, 66]    | 132      |
| ├─(edge_emb)Linear              | [341148, 4]                            | [341148, 66]   | 330      |
| ├─(convs)ModuleList             | --                                     | --             | 26,532   |
| │    └─(0)GINEConv              | [50614, 66], [2, 341148], [341148, 66] | [50614, 66]    | 13,266   |
| │    └─(1)GINEConv              | [50614, 66], [2, 341148], [341148, 66] | [50614, 66]    | 13,266   |
| ├─(emlps)ModuleList             | --                                     | --             | --       |
| ├─(batch_norms)ModuleList       | --                                     | --             | 264      |
| │    └─(0)BatchNorm             | [50614, 66]                            | [50614, 66]    | 132      |
| │    │    └─(module)BatchNorm1d | [50614, 66]                            | [50614, 66]    | 132      |
| │    └─(1)BatchNorm             | [50614, 66]                            | [50614, 66]    | 132      |
| │    │    └─(module)BatchNorm1d | [50614, 66]                            | [50614, 66]    | 132      |
| ├─(mlp)Sequential               | [341148, 198]                          | [341148, 2]    | 11,277   |
| │    └─(0)Linear                | [341148, 198]                          | [341148, 50]   | 9,950    |
| │    └─(1)ReLU                  | [341148, 50]                           | [341148, 50]   | --       |
| │    └─(2)Dropout               | [341148, 50]                           | [341148, 50]   | --       |
| │    └─(3)Linear                | [341148, 50]                           | [341148, 25]   | 1,275    |
| │    └─(4)ReLU                  | [341148, 25]                           | [341148, 25]   | --       |
| │    └─(5)Dropout               | [341148, 25]                           | [341148, 25]   | --       |
| │    └─(6)Linear                | [341148, 25]                           | [341148, 2]    | 52       |
+---------------------------------+----------------------------------------+----------------+----------+
2025-09-11 17:30:05,491 [INFO ] Train F1: 0.0016
2025-09-12 10:18:45,283 [INFO ] Random seed set as 1
2025-09-12 10:18:45,283 [INFO ] Retrieving data
2025-09-12 10:18:47,174 [INFO ] Available Edge Features: ['EdgeID', 'from_id', 'to_id', 'Timestamp', 'Amount Sent', 'Sent Currency', 'Amount Received', 'Received Currency', 'Payment Format', 'Is Laundering']
…
